model/lenet5-cnn.pkl (torch_old, 264712 bytes, 10 tensors)

weight f4 [6, 1, 5, 5]
0	0x3ec1adf0	0.37828016
1	0x3e881f89	0.2658656
2	0x3e9881cc	0.29786527
3	0x3e81a0a3	0.2531787
4	0x3e8374af	0.2567496
5	0x3de9f1a4	0.114230424
6	0x3e4dd081	0.20099069
7	0x3ebedd86	0.37278384
8	0x3eb2486f	0.34820887
9	0x3ef9a641	0.48759654
10	0x3e632891	0.22183444
11	0xbd56e7b5	-0.052467067
12	0x3e28b6ea	0.16476026
13	0x3c9efe7c	0.019408457
14	0x3e3e4936	0.18582615
15	0xbe625f40	-0.22106647
16	0xbea00476	-0.31253403
17	0xbebc7822	-0.36810404
18	0xbe8ad51a	-0.2711571
19	0xbe341178	-0.17584789
20	0xbea89ff1	-0.32934526
21	0xbeb288eb	-0.34870085
22	0xbebafc9d	-0.36520854
23	0xbec5524f	-0.3853936
24	0x3a652c2d	0.00087422394
25	0x3eaa2d41	0.3323765
26	0x3ed619ed	0.41816655
27	0x3e42b6e1	0.19015075
28	0x3ec0ff0e	0.3769459
29	0x3e7f77f4	0.24948102
30	0x3c6c5957	0.014425597
31	0xbcf1bbc0	-0.029508471
32	0x3e014a04	0.12625891
33	0x3e3461a4	0.17615372
34	0x3e16485c	0.1467604
35	0x3a3f4268	0.0007295967
36	0xbe256417	-0.16151462
37	0xbec9c882	-0.39410788
38	0xbec18b92	-0.37801796
39	0xbe8373c9	-0.25674275
40	0x3db3fa34	0.08787957
41	0xbcaf60da	-0.021408487
42	0xbe989b42	-0.29805952
43	0xbe957f91	-0.29198888
44	0x3c224dc4	0.009906236
45	0xbe15a722	-0.14614537
46	0xbd7902e7	-0.060793784
47	0xbe21f720	-0.15816927
48	0xbd711051	-0.05885345
49	0x3cad7d65	0.021177957
50	0xbd82e814	-0.06391922
51	0x3dd2bcec	0.1028994
52	0xbe10f64c	-0.14156455
53	0xbd94bd29	-0.07262642
54	0xbd96c9ae	-0.07362686
55	0x3dc456f1	0.09586895
56	0x3e2739bb	0.16330616
57	0x3eacdb2b	0.33760962
58	0x3e3d4b41	0.18485738
59	0x3e3ac775	0.1824015
60	0xbd71c34d	-0.059024144
61	0x3dcfc6df	0.101453535
62	0x3ec111e6	0.37708968
63	0x3e824064	0.2543975
64	0xbd4fb27a	-0.050707318
65	0xbdbbb14c	-0.09164676
66	0x3e263ae3	0.16233401
67	0x3eb104ad	0.3457388
68	0x3eb59d8a	0.35471755
69	0x3e113d89	0.1418363
70	0xbdde6422	-0.108589426
71	0xbda332c6	-0.07968669
72	0x3d97a296	0.07404058
73	0x3c875d7d	0.01652407
74	0x3d24ed67	0.040265467
75	0xbdabd77d	-0.083907105
76	0x3db94622	0.0904658
77	0xbc9161f3	-0.017746901
78	0xbd5866e2	-0.05283249
79	0xbc344c5c	-0.011004534
80	0xbe410cc0	-0.1885252
81	0x3ddb0fd3	0.106963776
82	0xbe545e2c	-0.20739049
83	0xbc5807b0	-0.013185427
84	0x3c65c91b	0.014024998
85	0xbd99c657	-0.075085334
86	0xbdb7d8e5	-0.08976916
87	0xbe38bf37	-0.18041693
88	0x3e21fc0b	0.15818803
89	0xbd653807	-0.055961635
90	0xbdbd974e	-0.09257375
91	0xbd06d644	-0.032919183
92	0x3e0587f3	0.13040142
93	0xbe361d2f	-0.1778457
94	0xbdb396e0	-0.087690115
95	0xbdf43d8d	-0.119258024
96	0x3dc7023c	0.09717223
97	0xbe0fe9d6	-0.14054045
98	0xbe5b194f	-0.21396373
99	0xbd6ebf37	-0.058287825
100	0x3d48c00a	0.049011268
101	0x3e9ffc78	0.31247306
102	0xbd32cbf7	-0.043651547
103	0xbea2b606	-0.31779498
104	0xbea1236a	-0.3147233
105	0x3db7a2d4	0.08966604
106	0x3eab2fdb	0.33434948
107	0xbc97d8f4	-0.018536068
108	0xbc8fba96	-0.017545026
109	0xbe9e7c2d	-0.30954114
110	0x3dfba5c2	0.12287475
111	0x3e917441	0.28409007
112	0x3eb15c97	0.34640953
113	0xbd32e7bd	-0.043678034
114	0x3e090d3e	0.13383958
115	0xbd192440	-0.037388086
116	0x3e75bdd0	0.23998189
117	0x3e2afbae	0.1669757
118	0x3e85c2f8	0.26125312
119	0x3e8afb71	0.2714496
120	0x3dfdd9de	0.123950705
121	0xbcbd3f93	-0.023101604
122	0x3c8fa20a	0.017533321
123	0x3ea6d0dc	0.32581222
124	0x3e35d930	0.17758632
125	0x3e7c8c3e	0.24662873
126	0x3e946e88	0.2899058
127	0xbc00aba3	-0.007853421
128	0x3dfc049f	0.12305569
129	0x3e3a18aa	0.18173471
130	0x3eb26395	0.348416
131	0x3e4ab6ad	0.19796248
132	0xbcbcdb27	-0.023053719
133	0x3c2397db	0.009984936
134	0xbdcaaf7f	-0.098967545
135	0x3ead64e0	0.33866024
136	0x3d5fc220	0.05462849
137	0x3dd69a9c	0.10478708
138	0x3d990084	0.074708015
139	0x3d837f69	0.06420786
140	0x3e64500f	0.22296165
141	0x3e14e773	0.14541416
142	0xbcf75872	-0.030193541
143	0xbdddcf4c	-0.10830554
144	0xbe649fba	-0.22326556
145	0x3d793014	0.060836866
146	0x3e66c715	0.22536881
147	0xbe306482	-0.1722584
148	0xbe9b7291	-0.30360845
149	0xbe797f29	-0.24364914

bias f4 [6]
0	0x3db63368	0.08896524
1	0x3e4dfeba	0.20116702
2	0xbc3e598d	-0.01161803
3	0xbe640b80	-0.22270012
4	0x3add9335	0.0016904833
5	0xbc22b4d9	-0.009930813

weight f4 [16, 6, 5, 5]
0	0x3df584f5	0.1198825
1	0x3e9fa9db	0.31184277
2	0x3e925388	0.28579354
3	0xbe3b3ed7	-0.1828569
4	0xbebd8e48	-0.37022614
5	0x3da7d0fd	0.08194158
6	0x3e66c557	0.22536217
7	0x3cb580ca	0.022156138
8	0xbf0ae3a4	-0.542536
9	0xbe40fb2a	-0.18845811
10	0x3e1ee467	0.15516816
11	0x3e8080b5	0.25098196
12	0x3cc84080	0.024444818
13	0xbdb5325f	-0.08847498
14	0x3e2b05af	0.16701387
15	0x3e2f7556	0.17134604
16	0x3ccdfd0d	0.025145078
17	0x3b2ab548	0.0026047993
18	0x3cb6857c	0.022280447
19	0x3d93f128	0.07223731
20	0x3dc5d926	0.096605584
21	0x3dc31a43	0.095264934
22	0xbd5b8fb8	-0.053603858
23	0xbce9ffc0	-0.028564334
24	0xbda1f462	-0.079079404
25	0xbda9e036	-0.08294718
26	0x3d9a0207	0.07519918
27	0x3cfeea56	0.0311176
28	0xbe0e97cd	-0.13925095
29	0xbe6eedd9	-0.23332919
30	0x3ddd7521	0.10813356
31	0x3d68afe2	0.05680836
32	0xbca3c193	-0.019989764
33	0xbe837570	-0.25675535
34	0xbe8de256	-0.27711743
35	0xbdf59085	-0.119904555
36	0xbde0eb03	-0.10982325
37	0xbdf0759c	-0.11741182
38	0xbe8942c7	-0.2680876
39	0xbdc13b7e	-0.09435175
40	0x3e234d25	0.15947397
41	0x3c98aabb	0.018636098
42	0xbd8bbf60	-0.06823611
43	0xbd8cbc3a	-0.06871839
44	0x3d5c77c3	0.05382515
45	0xbd07d8fa	-0.03316591
46	0xbb0e0f69	-0.0021676666
47	0xbdbcbf50	-0.092161775
48	0xbe10322f	-0.14081644
49	0xbdd18350	-0.10230124
50	0xbdf13700	-0.117780685
51	0x3c90e55f	0.017687498
52	0xbe727cae	-0.23680374
53	0xbe79ce9a	-0.24395218
54	0xbde1600e	-0.11004649
55	0xbe545220	-0.20734453
56	0xbe39cc6f	-0.18144391
57	0xbe2e3206	-0.1701127
58	0xbe0e5962	-0.13901284
59	0x3de9c8cf	0.11415254
60	0x3d9c5b5e	0.076346144
61	0x3db4d062	0.08828808
62	0x3def2b7d	0.116782166
63	0xbc2ad459	-0.010426604
64	0x3cbc0787	0.022952808
65	0x3e08313a	0.13300028
66	0x3e415080	0.18878365
67	0x3d9b5f11	0.07586492
68	0x3d322c93	0.04349954
69	0x3d2babaf	0.041911777
70	0x3cd204d3	0.025637066
71	0x3d7e7c38	0.062130183
72	0x3d963d2b	0.073358856
73	0x3daf33e6	0.08554821
74	0xbcd1f2f6	-0.025628548
75	0x3d5fd9c4	0.054651037
76	0x3d21dcae	0.039517097
77	0xbd6a4415	-0.057193834
78	0xbd9a67f5	-0.075393595
79	0x3d015ff6	0.031585656
80	0x3c0c24a5	0.008553659
81	0xbd892074	-0.06695643
82	0xbcaa6686	-0.02080084
83	0x3d785e40	0.06063676
84	0xbd94f3a6	-0.07273035
85	0xbcaad154	-0.020851769
86	0x3cae869c	0.021304421
87	0x3cb27190	0.021782666
88	0x3b00b790	0.0019640662
89	0x3d83666a	0.06416018
90	0xbcf20c8a	-0.029546995
91	0x3d870d70	0.0659436
92	0x3d6de80c	0.058082625
93	0xbbfb4b20	-0.0076688677
94	0x3d7a459c	0.06110154
95	0x3c10a070	0.008827314
96	0xbd1028ab	-0.035195034
97	0xbd25d0a6	-0.040482186
98	0xb9e1d985	-0.0004307741
99	0xbd67ffc5	-0.056640405
100	0xbe00c8f2	-0.12576655
101	0xbe40e041	-0.18835546
102	0xbe4e589b	-0.20150988
103	0xbe82a60d	-0.25517312
104	0xbdffd771	-0.12492264
105	0xbe0d6aab	-0.13810222
106	0xbde43fb1	-0.11144961
107	0x3bec768f	0.0072162817
108	0x3c1cc503	0.009568456
109	0x3bd2fee6	0.0064390777
110	0x3d9d9396	0.076941654
111	0x3e64ec9e	0.22355887
112	0x3da93e06	0.08263783
113	0x3decfafa	0.115713075
114	0x3d354b1b	0.04426108
115	0x3db766b7	0.08955138
116	0x3e25b0d4	0.16180736
117	0x3e481a90	0.19541383
118	0x3de3191e	0.11088775
119	0x3df7078e	0.12061988
120	0x3cdf3b5e	0.027249988
121	0x3e0f21ba	0.1397771
122	0x3e137424	0.14399773
123	0x3dcda7a4	0.100417405
124	0x3dcf936e	0.10135542
125	0xbe4a8946	-0.19778928
126	0xbdbd88c0	-0.092545986
127	0x3c54a3ec	0.012978535
128	0xbe7bbef1	-0.24584557
129	0xbde56eb7	-0.11202758
130	0xbd4e7d1a	-0.050412275
131	0xbe08d502	-0.13362506
132	0xbe7db6d4	-0.24776775
133	0xbebdbc0c	-0.3705753
134	0xbe55b3fa	-0.20869437
135	0xbcd2486f	-0.025669305
136	0xbe59f46d	-0.21284647
137	0xbe0c446c	-0.13697976
138	0x3bf03f54	0.007331768
139	0x3b91c085	0.004447999
140	0x3dbbd8e1	0.09172226
141	0x3d2ca480	0.042149067
142	0x3e1bdd2a	0.15221086
143	0x3df1d558	0.1180827
144	0x3d523628	0.05132118
145	0x3dd12b41	0.10213328
146	0x3d8d3e1a	0.068966106
147	0x3ccb3d07	0.024809374
148	0x3da83f26	0.082151696
149	0x3da38235	0.079838194
150	0xbe3c83af	-0.18409608
151	0xbe364001	-0.17797853
152	0xbe92b36e	-0.2865252
153	0xbe078f4c	-0.13238257
154	0xbdeb0693	-0.11475863
155	0xbeeecb7b	-0.46639618
156	0xbedce9f1	-0.43147233
157	0xbe443c09	-0.19163527
158	0x3c3ba86c	0.011453729
159	0x3e8498c3	0.25897798
160	0xbcd2278f	-0.025653629
161	0x3e0c5ba5	0.13706835
162	0x3deb6325	0.1149352
163	0x3e84641e	0.25857633
164	0x3e889ef3	0.2668377
165	0x3eb3b3e6	0.3509819
166	0x3ef0db7f	0.47042462
167	0x3ebeda05	0.3727571
168	0x3e98a40d	0.2981266
169	0xbd447b37	-0.04796907
170	0x3e3243b8	0.17408645
171	0x3d4d7a18	0.050165266
172	0x3cc266e7	0.023730708
173	0xbeb35e52	-0.35032898
174	0xbf2af0b0	-0.6677351
175	0x3dc42634	0.09577599
176	0x3cbe17e6	0.023204755
177	0xbde8403f	-0.11340379
178	0xbdf0a2a2	-0.1174977
179	0xbe3b3125	-0.18280466
180	0xbd02cf45	-0.03193595
181	0xbd861ad6	-0.06548087
182	0xbd83c962	-0.06434895
183	0xbdb6aa1c	-0.089191645
184	0x3e028451	0.12745787
185	0xbe2ae765	-0.16689833
186	0xbb4c651e	-0.00311882
187	0x3e0db21f	0.13837479
188	0x3dbaaee9	0.09115393
189	0x3e68694a	0.22696415
190	0x3de40cd6	0.11135261
191	0x3e3f1ea9	0.1866404
192	0x3e41d1b8	0.18927658
193	0x3da5a04b	0.08087214
194	0x3d7069b1	0.058694545
195	0x3dda0291	0.10645021
196	0x3be45aee	0.0069688475
197	0x3ce34c16	0.027746242
198	0x3c9ba466	0.01899929
199	0xbe2df3ab	-0.16987483
200	0xbe0b980d	-0.13632222
201	0xbc7809b5	-0.015139033
202	0x3d7b092e	0.06128805
203	0xbd0dbaf7	-0.03460213
204	0xbcc9293c	-0.024555795
205	0xbd366e2a	-0.044538654
206	0x3b29b466	0.002589488
207	0x3cc594b3	0.024118757
208	0x3d9261f5	0.0714759
209	0x3dbf0a84	0.093281776
210	0x3d9b26f8	0.07575792
211	0x3d4e8b78	0.050425977
212	0x3c0dc8cf	0.0086538335
213	0xbc8e7f05	-0.017394552
214	0xbdb3e021	-0.087829836
215	0xbbe9a040	-0.007129699
216	0xbdc320fe	-0.09527777
217	0xbd455a81	-0.048182014
218	0xbdb97939	-0.090563245
219	0xbe52f87f	-0.20602606
220	0x3c76c54f	0.0150616905
221	0xbe0a8f87	-0.13531314
222	0xbe20b570	-0.15694213
223	0xbe30167f	-0.17196082
224	0x3d40f928	0.047112614
225	0xbd01ca09	-0.031686816
226	0xbd1fba1a	-0.03899584
227	0xbc7c8ff7	-0.015415183
228	0x3d97d0ce	0.07412873
229	0xbd9b5f09	-0.07586486
230	0x3d991ece	0.07476579
231	0xbcb8c568	-0.022555068
232	0xbc9f8118	-0.019470736
233	0x3d34acf0	0.04411024
234	0x3c9ec6e4	0.019381948
235	0x3d8212c2	0.06351234
236	0x3d0fe13c	0.03512691
237	0x3ce5b5e8	0.028040841
238	0x3dad3b0e	0.084585294
239	0x3da45d08	0.08025557
240	0x3ca66468	0.02031155
241	0x3bafa010	0.005359657
242	0x3d8ab2b5	0.06772367
243	0x3c4a5404	0.012349132
244	0x3d4cd18c	0.050004527
245	0xbd22a683	-0.03970958
246	0x3d300b4e	0.04297953
247	0x3d1e79ea	0.038690485
248	0xbd73b97c	-0.059503064
249	0x3d22e2e4	0.03976716
250	0x3d013f9e	0.03155481
251	0xbc6dcce0	-0.014514178
252	0x3d37522e	0.044756107
253	0xbd2229a8	-0.039590508
254	0x3dd5b302	0.10434534
255	0x3d51b0b1	0.051193897

bias f4 [16]
0	0x3cbebce3	0.023283428
1	0xbdb00769	-0.085951634
2	0xbb62a663	-0.0034584037
3	0x3db4c1c2	0.08826019
4	0xbe1506f9	-0.14553441
5	0x3e2e3f34	0.17016298
6	0xbd817de6	-0.06322841
7	0xbd944e4b	-0.07241496
8	0xbd8d5f05	-0.06902889
9	0x3d84af90	0.064787984
10	0x3e4139be	0.18869683
11	0x3d6d6c9b	0.057964902
12	0x3d2aa7e9	0.041664038
13	0x3d1e4f73	0.038649987
14	0x3da8cb46	0.08241896
15	0x3bba693b	0.005688814

weight f4 [120, 16, 5, 5]
0	0x3d112a73	0.035440873
1	0x3d361b57	0.044459667
2	0xbd154a5f	-0.03644788
3	0x3d19471b	0.037421327
4	0xbd0a4dd0	-0.033765614
5	0x3c80e456	0.015733879
6	0x3c26b9ee	0.010176165
7	0x3d69dea6	0.0570971
8	0x3cde20ca	0.027115244
9	0xbe4a63af	-0.19764589
10	0x3d02deab	0.031950634
11	0xbd6ba348	-0.057528764
12	0x3c6e3081	0.014537931
13	0xbbf4e56a	-0.0074736373
14	0xbd20cd38	-0.03925821
15	0xbd209c79	-0.039211724
16	0xbc9b7af1	-0.018979521
17	0x3d6d8f1c	0.057997808
18	0x3d71ddfa	0.059049584
19	0x3e17df79	0.14831342
20	0x3e31f5ad	0.17378874
21	0x3d8ffe65	0.07030944
22	0x3de23d2d	0.110468246
23	0x3db98aeb	0.090596996
24	0x3e6046f9	0.21902074
25	0xbd7a254d	-0.06107073
26	0x3afefaa9	0.0019453365
27	0xbcdaacb5	-0.026693681
28	0x3d95b24c	0.07309398
29	0x3e12ecf7	0.14348207
30	0xbb1ca9a9	-0.0023904836
31	0x3d2fad2b	0.042889755
32	0xbd159249	-0.03651646
33	0xbd9a3f99	-0.075316615
34	0x3d23676b	0.03989355
35	0x3daa300f	0.08309948
36	0x3da1462d	0.07874713
37	0x3df269c1	0.11836577
38	0x3c9b6802	0.018970493
39	0xbd1e2bde	-0.038616054
40	0x3dd130c3	0.10214379
41	0x3dc84d9e	0.09780429
42	0x3cd7de56	0.026351135
43	0x3d939e16	0.07207887
44	0xbd074404	-0.03302385
45	0x3d9fcd70	0.07802856
46	0xbda7bd0b	-0.08190354
47	0xbdab2d98	-0.08358306
48	0x3ab8e3c2	0.0014105963
49	0xbd884a62	-0.066548124
50	0xbd1bec60	-0.03806722
51	0x3c44e609	0.012017735
52	0x3d3b63c7	0.045749452
53	0xbbb36963	-0.0054752096
54	0x3dddaea6	0.10824327
55	0xbd8411c7	-0.06448703
56	0x3d9bd2b4	0.07608548
57	0xbc5a9fd9	-0.013343775
58	0xbdf4677a	-0.11933799
59	0xbdba912e	-0.09109722
60	0x3df20843	0.11817982
61	0x3d878a34	0.06618157
62	0xbdc04579	-0.09388251
63	0xbcfc9287	-0.030831588
64	0x3d0e21cd	0.034700204
65	0x3e711477	0.23542963
66	0x3d6df883	0.058098327
67	0xbde1feb7	-0.11034911
68	0x3cdd5d79	0.02702211
69	0x3d1d33c5	0.03837945
70	0x3df7ba38	0.12096065
71	0x3dc09929	0.09404213
72	0xbc0859c6	-0.008322185
73	0x3e2fd881	0.17172433
74	0x3e4a5cd2	0.1976197
75	0x3d3dee1f	0.046369668
76	0xbe138dbc	-0.14409536
77	0xbee44e20	-0.44590855
78	0xbdad1bc4	-0.084525615
79	0xbd9ab3b6	-0.075538084
80	0xbbec44da	-0.007210356
81	0x3c6eb62e	0.014569802
82	0xbc4b49dd	-0.012407747
83	0xbd18e51e	-0.03732788
84	0x3cd859ff	0.026410101
85	0x3d8316a7	0.06400805
86	0x3da0acee	0.07845484
87	0xbe1274a6	-0.1430231
88	0x3d24f592	0.040273257
89	0xbe02f969	-0.12790455
90	0x3df610cc	0.120149225
91	0x3e760d2d	0.24028464
92	0x3d60fc75	0.05492826
93	0xbcb0388f	-0.021511344
94	0xbdafa4ac	-0.085763305
95	0xbdbe336b	-0.09287151
96	0x3d085de3	0.033292662
97	0x3e0df9a4	0.13864762
98	0x3be1507a	0.0068760486
99	0xbdbd20a1	-0.09234739
100	0xbd400ab6	-0.046885215
101	0xbb3429cf	-0.002749074
102	0xbd2381cc	-0.039918706
103	0xbc5520e8	-0.013008334
104	0x3d343f89	0.044005904
105	0xbc8f4898	-0.01749067
106	0xbba9dcdb	-0.0051837987
107	0x3dc6f91f	0.09715485
108	0x3b82fe4d	0.0039976
109	0xbd521b96	-0.05129584
110	0x3df831b1	0.12118853
111	0x3cbe0d65	0.023199746
112	0x3d7748db	0.060372215
113	0x3d9502d3	0.07275929
114	0x3d3e5010	0.046463072
115	0x3e6c994b	0.23105352
116	0x3cdb8bc5	0.026800046
117	0xbe0598a6	-0.13046512
118	0x3da5c2b5	0.08093778
119	0x3e14cf80	0.1453228
120	0x3e02f903	0.12790303
121	0xbe177ec3	-0.1479445
122	0xbe45be9c	-0.19310993
123	0x3de4c523	0.11170413
124	0x3dd91cfb	0.10601231
125	0x3cfa0a80	0.030522585
126	0x3d784f10	0.060622275
127	0x3ddd0f1f	0.107939
128	0xbd74e407	-0.059787776
129	0xbdf16f54	-0.11788812
130	0x3db33420	0.087501764
131	0x3d2e5e80	0.04257059
132	0x3e436d95	0.19084771
133	0x3e076b7f	0.132246
134	0xbd3c52ab	-0.045977276
135	0xbcfb6ba6	-0.03069098
136	0xbde25bb5	-0.11052648
137	0xbd08ab0f	-0.03336626
138	0x3d6305e6	0.055425547
139	0x3d711023	0.05885328
140	0x3da7572a	0.08170922
141	0xbe059626	-0.13045558
142	0xbd52df31	-0.051482383
143	0x3dca6bf8	0.09883875
144	0x3dfe0de4	0.12404993
145	0xbc264f24	-0.0101507045
146	0x3d35b77d	0.04436444
147	0xbcf427dd	-0.029804165
148	0x3d447e79	0.047972176
149	0x3b3eeb12	0.0029131812
150	0xbd59a914	-0.05313976
151	0xbd4a2879	-0.049355004
152	0xbd65f265	-0.05613937
153	0xbddace1f	-0.10683846
154	0xbd86b6af	-0.06577813
155	0x3e1cb952	0.15305069
156	0x3e0e658d	0.13905926
157	0xba217421	-0.0006158967
158	0xbcf732d1	-0.030175598
159	0x3cb708de	0.022343095
160	0x3d72af04	0.05924894
161	0xb93cc89e	-0.00018003813
162	0xbcd1647b	-0.025560608
163	0x3d3908e0	0.04517448
164	0x3d22a025	0.039703507
165	0x3cfc4303	0.030793672
166	0x3da56a25	0.08076886
167	0xbd361f6b	-0.044463556
168	0x3c9661eb	0.018357238
169	0x3d40e6f5	0.047095258
170	0xbe17e17e	-0.14832112
171	0xbe196ef9	-0.14983739
172	0xbcdbf431	-0.026849838
173	0xbd035716	-0.032065473
174	0x3b8d2aa6	0.0043080626
175	0x3c9b24bb	0.018938413
176	0xbce422bc	-0.027848594
177	0xbd58e776	-0.052955113
178	0x3cbe8ca6	0.023260426
179	0x3bc4d21f	0.0060064937
180	0x3e71bb41	0.23606588
181	0x3ddf1fb7	0.10894721
182	0xbc441002	-0.011966707
183	0xbe2343a2	-0.15943769
184	0xbde0ac71	-0.109703906
185	0x3cc4cb8a	0.024022836
186	0xbde1e026	-0.11029081
187	0xbe2144df	-0.15748928
188	0xbe22f17c	-0.15912431
189	0xbdb8eec3	-0.09029915
190	0xbd6b38a0	-0.05742705
191	0xbe56e316	-0.20985064
192	0xbe7e194e	-0.2481434
193	0xbe72b36d	-0.23701258
194	0xbd89f756	-0.06736629
195	0xbd8de1b3	-0.06927814
196	0x3c866df7	0.016409857
197	0xbe4ce7e3	-0.20010333
198	0xbe1888e7	-0.14895974
199	0x3d8d5f54	0.06902948
200	0x3c3262de	0.01088783
201	0xbc80dd38	-0.015730485
202	0xbcdd1091	-0.026985439
203	0xbcf2c69f	-0.029635726
204	0xbd740039	-0.059570525
205	0x3bfc951b	0.0077082044
206	0x3d17fb1b	0.037104707
207	0xbcf55cac	-0.029951416
208	0xbd093a1f	-0.033502694
209	0xbdf74a95	-0.12074772
210	0xbc62c3d5	-0.013840635
211	0x3cd911d3	0.026497757
212	0xbdd7a00a	-0.10528572
213	0xbdc2dbbe	-0.09514569
214	0xbdcbf8fb	-0.09959599
215	0x3d2c0bf3	0.042003583
216	0x3dbba363	0.09162023
217	0xbcbe28ee	-0.023212876
218	0xbdd8aa5d	-0.10579369
219	0xbd26d46a	-0.040729918
220	0xbdd3891e	-0.103288874
221	0xbdcae580	-0.09907055
222	0x3cb5eae8	0.022206739
223	0xbd4866dc	-0.04892622
224	0x3dcae507	0.09906965
225	0x3da5aca7	0.080895714
226	0xbbc13a63	-0.005896853
227	0xbe0a4470	-0.1350267
228	0x3e189fc7	0.149047
229	0x3d664b41	0.05622411
230	0x3e062d17	0.13103138
231	0xbd72c9bc	-0.05927442
232	0xbc524e92	-0.012836115
233	0x3d0e294d	0.034707356
234	0x3d840ef3	0.06448164
235	0x3da1b991	0.07896722
236	0xbe1187a9	-0.14211906
237	0x3cc86991	0.0244644
238	0x3e2f81fb	0.17139427
239	0x3e7cc1e2	0.24683335
240	0xbc81f103	-0.015861994
241	0xbd4209b0	-0.04737252
242	0x3df2dee3	0.118589185
243	0x3dcc1406	0.09964757
244	0x3d55daf3	0.05221076
245	0x3dfbdff4	0.12298575
246	0x3d9aedb3	0.07564869
247	0x3d7ecced	0.06220715
248	0xbe04b357	-0.12959038
249	0xbeaf9d5d	-0.34299746
250	0xbcfb8ad5	-0.030705849
251	0x3e015c5a	0.12632886
252	0x3e16517f	0.14679526
253	0x3daa135e	0.08304475
254	0xbc16d025	-0.009204899
255	0x3e297cc4	0.165515

bias f4 [120]
0	0x3c9492c0	0.018136382
1	0xbd6d0704	-0.05786802
2	0xbd5d789b	-0.054070096
3	0x3e26a93c	0.16275495
4	0x3cb97e94	0.022643365
5	0x3cd36a14	0.025807418
6	0x3e46a91c	0.19400448
7	0xbd9edc9f	-0.07756924
8	0xbd181e73	-0.037138414
9	0x3c8644d9	0.016390251
10	0xbcc12343	-0.023576384
11	0x3db7c39c	0.089728564
12	0xbd54238f	-0.051791724
13	0x3c7fe503	0.0156185655
14	0xbd7652da	-0.060137607
15	0xbd8e886c	-0.06959614
16	0xbda5d489	-0.080971785
17	0xbcaf6d21	-0.021414341
18	0x3b2786dc	0.002556256
19	0x3d6c4b99	0.057689283
20	0xbdb0ce2b	-0.086330734
21	0x3d1ac94f	0.03778964
22	0x3d485e0a	0.048917808
23	0xbc517261	-0.012783618
24	0xbd5635be	-0.052297346
25	0x3c4a3868	0.01234255
26	0x3bcca526	0.006245273
27	0xbd16a091	-0.03677422
28	0x3cabd4dc	0.020975523
29	0xbcab98f7	-0.020946963
30	0x3d7e02db	0.062014442
31	0xbd0a6dd3	-0.033796143
32	0xbcc55652	-0.024089012
33	0xbd9309d3	-0.07179608
34	0x3d1a84ee	0.037724428
35	0x3e1ca5ef	0.15297674
36	0x3c9ff61a	0.01952653
37	0x3c9038c6	0.017605197
38	0x3c803786	0.015651476
39	0xbc90c954	-0.017674126
40	0xbbf47e10	-0.007461317
41	0x3d85dc0c	0.06536111
42	0x3d3447f9	0.04401395
43	0xbd8d3327	-0.06894522
44	0x3bed1df6	0.0072362376
45	0x3da69b61	0.08135105
46	0xbd19a31b	-0.037509065
47	0x3d1ab92e	0.037774257
48	0x3d3a0f45	0.04542472
49	0xbd06eaa2	-0.032938607
50	0x3c85b24d	0.016320372
51	0xbbd6afeb	-0.006551733
52	0xbd882fda	-0.06649752
53	0x3d9d2881	0.07673741
54	0xbda82742	-0.08210613
55	0x3cec3b89	0.028836982
56	0xbc15af2d	-0.009136003
57	0xbd71b010	-0.059005797
58	0xbd87bfa9	-0.06628353
59	0x3d88eb9d	0.06685565
60	0xbd6c4b9a	-0.057689287
61	0x3d68f1ab	0.056871098
62	0x3b46b7af	0.0030321886
63	0x3d31eac1	0.04343677
64	0x3b5b43dc	0.0033457195
65	0x3c0f3ea2	0.00874296
66	0x3c230822	0.0099506695
67	0x3cfe8866	0.0310709
68	0xbcc3c017	-0.023895307
69	0x3db8a72e	0.09016262
70	0xb9f718e5	-0.0004713006
71	0xbd7bba00	-0.06145668
72	0xbc672b67	-0.014109469
73	0x3ba3491f	0.004983082
74	0x3cbe7f6b	0.023254117
75	0xbd4dafc7	-0.050216462
76	0xb9be1b87	-0.00036260133
77	0x38f3b2fc	0.000116204814
78	0xbe023275	-0.1271456
79	0xbd6040cc	-0.054749295
80	0x3c510fca	0.012760112
81	0x3d276798	0.04087028
82	0x3d5c4cb1	0.053784076
83	0xbd82c292	-0.063847676
84	0x3d25448f	0.040348586
85	0xbc6eef36	-0.0145833995
86	0x3c678cf2	0.014132725
87	0x3d9c226d	0.07623754
88	0x3e139290	0.14411378
89	0x3b75ad39	0.0037487282
90	0x37e8530d	2.7695229e-05
91	0xbd49a329	-0.049227867
92	0xbd49cdd8	-0.049268574
93	0xbc19f4d2	-0.009396749
94	0xbd908141	-0.07055903
95	0x3da592e4	0.08084658
96	0x3bff3b82	0.0077890763
97	0xbd8a495d	-0.06752274
98	0xbd71d0cb	-0.05903701
99	0x3d94f43b	0.07273146
100	0x3c9a6953	0.01884905
101	0x3d4e8f26	0.050429486
102	0xbd2f6853	-0.0428241
103	0x3deccdcc	0.1156269
104	0xbd8dd24e	-0.06924878
105	0x3cb49390	0.02204302
106	0xbd6c765c	-0.057730064
107	0x3d175039	0.03694174
108	0xbd93d7fa	-0.07218929
109	0xbd85a2bf	-0.06525182
110	0x3be4236b	0.00696223
111	0xbccd7f60	-0.025085151
112	0x3bd72b6e	0.0065664565
113	0xbd0433ce	-0.032275967
114	0xbcb8d228	-0.022561148
115	0xbd1ce8cd	-0.038307954
116	0x3c9baf71	0.019004555
117	0x3d0ac8c2	0.033882864
118	0x3b8f3e40	0.0043714345
119	0xbd577178	-0.052598447

weight f4 [84, 120]
0	0x3cc19d07	0.023634447
1	0x3cac1ab0	0.02100882
2	0x3d44fb88	0.04809144
3	0x3dd4c5d9	0.10389299
4	0x3e4af71d	0.19820829
5	0x3b97b2f8	0.004629489
6	0x3cd21bbc	0.02564799
7	0xbe02f802	-0.1278992
8	0xbd420146	-0.047364496
9	0x3994e745	0.0002840107
10	0xbd223c54	-0.039608315
11	0xbd16440c	-0.03668599
12	0x3d78652c	0.06064336
13	0x3e587433	0.21138076
14	0x3d490094	0.049072817
15	0x3de536df	0.111921065
16	0x3e2c520b	0.16828172
17	0xbd3fb86d	-0.04680674
18	0xbd4d3422	-0.050098546
19	0x3c8807e4	0.016605325
20	0xbdf33243	-0.11874821
21	0xbdbafc7d	-0.091301896
22	0x3d6a0ebd	0.05714296
23	0xbd074cab	-0.0330321
24	0x3cf24c7c	0.029577486
25	0x3d22017d	0.0395522
26	0xbd53467e	-0.0515809
27	0x3dff08b5	0.124528326
28	0x3e56cc5d	0.20976396
29	0xbe19e8c7	-0.15030204
30	0x3caefb4c	0.021360062
31	0xbd62c9d9	-0.05536828
32	0x3d69d2ec	0.057085916
33	0xbdb9cb03	-0.090719245
34	0x3d2b525c	0.04182659
35	0x3befc103	0.00731671
36	0x3cde56ef	0.027141063
37	0x3d7d3d57	0.061826076
38	0xbd7258d8	-0.05916676
39	0xbd550d6a	-0.052014746
40	0x3dde812e	0.10864483
41	0x3dac4d0d	0.08413134
42	0xbe0f1203	-0.13971715
43	0x3d8d227f	0.06891345
44	0x3c477eb6	0.012176206
45	0xbc886df0	-0.016653985
46	0x3d21a5b0	0.039464653
47	0xbdf77d70	-0.12084472
48	0xbd1479fa	-0.03624914
49	0x3e35def7	0.17760836
50	0x3db3f072	0.08786096
51	0x3d15f718	0.0366126
52	0x3d1fcd88	0.03901437
53	0x3d34e28a	0.044161357
54	0x3d52a21a	0.051424123
55	0xbcbe015f	-0.023194013
56	0x3daf9d49	0.08574922
57	0xbd4a939d	-0.04945718
58	0x3dab63cc	0.08368644
59	0x3d0af4cd	0.033924866
60	0xbe9af916	-0.30268162
61	0xb83e6397	-4.539228e-05
62	0xbc6e04ab	-0.01452748
63	0xbdb13d81	-0.08654309
64	0xbdb23852	-0.087021485
65	0x3dbf94e7	0.09354573
66	0xbcca38d2	-0.024685297
67	0x3eb7eaef	0.35921428
68	0x3d553f80	0.05206251
69	0x3d0ca295	0.034334738
70	0x3c889e92	0.016677175
71	0xbc953ce0	-0.018217504
72	0xbd092c71	-0.03348965
73	0xbd128cbe	-0.035778753
74	0x3df10f12	0.117704526
75	0xbc5e4a18	-0.01356747
76	0x3c32953f	0.010899841
77	0xbd9d991e	-0.076952204
78	0xbc9df3d0	-0.019281298
79	0x3dce9140	0.10086298
80	0x3e330731	0.17483212
81	0x3c992fbb	0.018699517
82	0x3af3f824	0.001861338
83	0xbd207822	-0.039177068
84	0xbaf3b66b	-0.0018593794
85	0x3e4ddfcf	0.20104907
86	0x3cad7930	0.02117595
87	0x3c01b93b	0.007917698
88	0xbdb9f0e5	-0.0907915
89	0x3d956cc4	0.07296136
90	0x3dafeb61	0.08589817
91	0xbdda7443	-0.106667064
92	0xbcdee15c	-0.02720707
93	0x3d41001c	0.047119245
94	0x3d11eb5c	0.035624847
95	0x3d23b393	0.039966177
96	0xbd3312e8	-0.043719202
97	0x3bc49e0b	0.0060002855
98	0xbbf6e0cb	-0.0075341216
99	0xbd6a20da	-0.057160236
100	0x3df323fb	0.11872097
101	0x3c52ca9a	0.012865687
102	0xbd576bff	-0.052593227
103	0xbda91aae	-0.08257042
104	0xbc0456f8	-0.008077376
105	0x3deeb257	0.116551094
106	0xbd10d749	-0.035361562
107	0xbc205a8a	-0.009787211
108	0x3daed124	0.08535984
109	0x3c82b8dd	0.01595729
110	0x3d1d5dfa	0.0384197
111	0x3d4b9e6e	0.049711637
112	0xbe1abc0d	-0.15110798
113	0xbd8af9aa	-0.06785901
114	0xbbee9cdb	-0.007281882
115	0x3d34e2de	0.04416167
116	0xbc74135c	-0.014897194
117	0x3daa9c29	0.083305664
118	0x3c39d3e8	0.011342026
119	0xbe5569d8	-0.20841157
120	0xbdc164eb	-0.09443077
121	0x3d4d463c	0.05011581
122	0x3b39cbe0	0.0028350279
123	0xbce59585	-0.028025398
124	0xbdd76ada	-0.10518427
125	0xbdf2f3d4	-0.11862913
126	0xbd0a84f2	-0.033818193
127	0x3c6f6a58	0.014612757
128	0x3c8f31b8	0.017479762
129	0x3cc9774c	0.024593018
130	0x3cb470e8	0.022026494
131	0xbcf9c464	-0.030489154
132	0xbda1f7c0	-0.07908583
133	0x3c5b51e5	0.013386224
134	0xbd23c153	-0.03997929
135	0x3cc3b12c	0.023888193
136	0x3d7e9720	0.062155843
137	0xbd6dfd16	-0.05810269
138	0x3d277ca2	0.040890343
139	0x3d505987	0.05086663
140	0xbd279778	-0.040915936
141	0xbcb93036	-0.022605997
142	0x3d961faa	0.07330258
143	0x3dae3912	0.08506979
144	0xbd12f591	-0.03587872
145	0x3cbcec45	0.02306188
146	0xbdd2263d	-0.102611996
147	0xbd25ff42	-0.040526636
148	0xbd8b26c4	-0.06794503
149	0x3c8f29c4	0.01747597
150	0xbccffdd2	-0.025389586
151	0x3c6d8b98	0.014498614
152	0xbd45d380	-0.048297405
153	0xbe0028b5	-0.12515529
154	0xbc408ccb	-0.011752318
155	0x3d8e054d	0.06934605
156	0x3d891d8b	0.06695088
157	0x3ca05a7c	0.019574396
158	0x3c1d0eb4	0.009586025
159	0xbc9f654d	-0.019457484
160	0xbd264169	-0.040589724
161	0x3d87be5a	0.066281036
162	0xbdbd6da8	-0.09249431
163	0xbb7028b1	-0.0036645348
164	0x3d0c0ed4	0.03419383
165	0xbdc28ca8	-0.09499484
166	0xbd93e041	-0.072205074
167	0xbc2197bc	-0.009862836
168	0x3c823d5c	0.015898399
169	0xbd3d81b0	-0.046266258
170	0xbcaee3f0	-0.021348923
171	0x3cee2ffc	0.029075615
172	0xbc771e68	-0.015082933
173	0xbd812eb6	-0.063077375
174	0x3cc2ebfa	0.023794163
175	0xbcde7dfa	-0.02715968
176	0x3d3c3086	0.045944713
177	0x3da92f4c	0.08260974
178	0xbbc1e080	-0.005916655
179	0x3bbd5c4e	0.005778826
180	0xbdbe38de	-0.0928819
181	0xbb3a4c68	-0.002842689
182	0x3d5e92c8	0.0543392
183	0xbdadf98c	-0.08494863
184	0x3d99448e	0.07483779
185	0x3ce74524	0.028231211
186	0x3d8147d9	0.06312532
187	0xbdebe2a2	-0.11517836
188	0xbdf8feae	-0.12157951
189	0x3c531c8a	0.012885222
190	0xbd8c0816	-0.0683748
191	0xbd4e134a	-0.050311364
192	0xbdea0d13	-0.11428275
193	0xbd4224dc	-0.047398433
194	0x3d57cce6	0.05268564
195	0x3bc61dc0	0.006046027
196	0xbdcbd5e5	-0.099529065
197	0xbce75ab9	-0.028241502
198	0xbb7cc37d	-0.0038568669
199	0x3d962056	0.07330386
200	0x3d768a11	0.060190264
201	0xbd618625	-0.05505957
202	0x3d3b3d38	0.04571268
203	0xbd8cf866	-0.06883316
204	0xbd935f90	-0.071959615
205	0xbdd142f1	-0.10217846
206	0x3c4ff5c8	0.012692876
207	0xbd5d5d89	-0.05404428
208	0xbdda41e6	-0.106571004
209	0x3cb32b9c	0.02187138
210	0xbe0370f8	-0.12836063
211	0x3bd309ca	0.006440376
212	0xbd5fc71a	-0.054633237
213	0x3d8c8f22	0.06863238
214	0xbd9a5873	-0.075364016
215	0x3c928f7b	0.017890682
216	0x3c6d3758	0.014478527
217	0xbd82a9c6	-0.06380038
218	0xbce28126	-0.027649473
219	0xbd878699	-0.06617469
220	0xbd1a2f55	-0.037642796
221	0xbdc3b3ba	-0.095557645
222	0xbdb493b3	-0.08817234
223	0xbcd18648	-0.025576726
224	0x3d2cbb94	0.042171076
225	0x3d7bec7b	0.061504822
226	0x3da45ebc	0.08025882
227	0xbdb7bf3d	-0.08972023
228	0xbd5c4842	-0.053779848
229	0x3d58ee68	0.052961737
230	0xbdb74ddb	-0.089503966
231	0xbdc5668a	-0.096386984
232	0xbd9071da	-0.070529655
233	0xbbcc0400	-0.006226063
234	0x3d75fdd0	0.060056508
235	0xbdcd82f3	-0.10034742
236	0xbdf46d47	-0.119349055
237	0xbca4a1cc	-0.020096682
238	0xbc909da4	-0.017653294
239	0xbc750394	-0.014954466
240	0xbc95d426	-0.018289637
241	0x3cb38e1e	0.021918353
242	0xbcd2cfa6	-0.02573378
243	0xbd5bccd1	-0.053662125
244	0xbcc41c87	-0.023939384
245	0x3da29b0c	0.07939729
246	0xbd051840	-0.03249383
247	0x3e43a277	0.19104944
248	0xbdbcd81a	-0.092209056
249	0xbda66749	-0.08125169
250	0x3c9bcc5c	0.019018345
251	0xbe4f1ec2	-0.20226577
252	0xbda488f8	-0.08033937
253	0x3de8fd3b	0.11376425
254	0x3de28478	0.11060423
255	0x3d81a797	0.06330793

bias f4 [84]
0	0x3d191c17	0.037380304
1	0xbd93cbbd	-0.07216594
2	0xbd874906	-0.06605725
3	0x3db8c688	0.09022242
4	0xbe667071	-0.2250383
5	0x3d086e9a	0.033308603
6	0xbaaae42f	-0.0013037975
7	0x3cb024dc	0.02150195
8	0xbd8243c8	-0.063605845
9	0x3d2586c0	0.04041171
10	0x3d98dc89	0.07463939
11	0xbcc7a5c7	-0.024371041
12	0x3e317ceb	0.17332809
13	0x3e0f5393	0.13996725
14	0xbcc33e37	-0.023833377
15	0xbd4cd00e	-0.050003104
16	0x3d8b2de4	0.06795862
17	0x3dc982dd	0.09839413
18	0x3a3b81b9	0.0007152814
19	0xbd96957e	-0.07352732
20	0x3d9b0185	0.07568649
21	0x3db4b65b	0.08823844
22	0x3e0717a6	0.13192615
23	0x3d9a8319	0.07544536
24	0x3c979e0c	0.01850798
25	0x3d6bd3f7	0.057575192
26	0x3b4b3caf	0.0031011512
27	0x3d3fb33b	0.046801787
28	0x3d35a883	0.04435016
29	0x3da2263c	0.07917449
30	0xbc8ecc2c	-0.017431341
31	0xbe02bfed	-0.12768526
32	0x3d5d7300	0.05406475
33	0xbd11fc3b	-0.035640936
34	0x3e04d25b	0.12970869
35	0x3d9d0ec7	0.07668834
36	0x3d850259	0.064945884
37	0x3b594d6c	0.003315772
38	0x3cc5cdaf	0.02414593
39	0x3d88cc14	0.0667955
40	0x3da0dfb8	0.07855171
41	0xbcfe270a	-0.031024475
42	0xbd8b4712	-0.06800665
43	0x3de02297	0.109440975
44	0x3d90b05b	0.07064887
45	0x3dd05ade	0.101735815
46	0xbcccd7de	-0.025005277
47	0xbd0bca5f	-0.034128543
48	0xbd057ff6	-0.032592736
49	0x3c08da88	0.008352883
50	0x3c244de1	0.010028333
51	0xbc20f0df	-0.009823053
52	0x3d618774	0.05506082
53	0xbdb03c31	-0.086052306
54	0x3d103be6	0.035213374
55	0xbd909a59	-0.070606895
56	0x3d05d3bb	0.032672625
57	0x3dafa433	0.085762404
58	0x3d18a606	0.037267707
59	0xbb27ae0f	-0.0025585925
60	0x3c902208	0.017594352
61	0x3d388f3b	0.04505847
62	0x3d23df8c	0.040008113
63	0x3d83b6c2	0.06431343
64	0xbd1aa542	-0.03775526
65	0xbdd61c10	-0.10454571
66	0x3b959de1	0.00456594
67	0xbd805a67	-0.06267243
68	0x3d735c4d	0.059414197
69	0x3db55318	0.088537395
70	0x3b689ec6	0.0035495027
71	0x3df26313	0.11835303
72	0x3d957280	0.0729723
73	0xbd1601d7	-0.03662285
74	0x3c56cbea	0.01311014
75	0xbe5db32a	-0.21650377
76	0xbd688e6a	-0.05677644
77	0x3d1a43a5	0.037662167
78	0xbd888702	-0.06666376
79	0x3d8c020c	0.06836328
80	0xba8ded96	-0.0010828252
81	0x3cf60435	0.030031303
82	0x3d2ca2bf	0.042147394
83	0x3d4baf78	0.049727887

weight f4 [10, 84]
0	0xbc7ab2b5	-0.015301396
1	0xbda7e518	-0.08197993
2	0x3cac46f4	0.021029927
3	0xbc01e132	-0.007927226
4	0x3dd4918c	0.10379323
5	0xbe1c8c30	-0.15287852
6	0xbdaf7ae0	-0.085683584
7	0x3e1a25ea	0.15053526
8	0x3c716f94	0.014736075
9	0xbbda41ad	-0.006660661
10	0xbd9c77ea	-0.07640059
11	0x3caf1ac6	0.021375071
12	0x3dc8b46b	0.09800037
13	0xbdf3d26b	-0.119053684
14	0xbe374774	-0.17898351
15	0x3d91acf7	0.071130686
16	0x3dd80046	0.10546927
17	0xbe6e315a	-0.23261014
18	0x3d91d3a8	0.07120448
19	0xbdcdfa39	-0.10057492
20	0xbcfbecb2	-0.030752514
21	0xbc3da780	-0.01157558
22	0xbdc17121	-0.09445406
23	0xbdc40b6d	-0.09572492
24	0x3e2dd2d0	0.1697495
25	0xbdfe595c	-0.12419388
26	0xbe0559a2	-0.13022473
27	0xbce4b530	-0.027918428
28	0xbde2b6ff	-0.1107006
29	0x3d0faa53	0.035074543
30	0x3da22bee	0.07918535
31	0x3c8b2a9a	0.016988087
32	0xbd6292fb	-0.055315953
33	0x3e1941c2	0.14966491
34	0xbd00c858	-0.031441063
35	0xbdf041a1	-0.11731268
36	0xbde54dae	-0.11196457
37	0x3cfa951a	0.030588675
38	0x3d10dfcd	0.035369683
39	0xbd9e7180	-0.07736492
40	0xbdc70938	-0.09718555
41	0xbdd51565	-0.10404471
42	0x3c993302	0.01870108
43	0xbde3946d	-0.11112294
44	0xbdc8385a	-0.09776373
45	0x3e1754fd	0.14778514
46	0x3d718ec3	0.05897404
47	0x3e1480ef	0.1450231
48	0xbd76b5b7	-0.06023189
49	0xbe8b2847	-0.27179167
50	0xbcdc1d98	-0.02686958
51	0x3defcaff	0.1170864
52	0xbdf02201	-0.11725236
53	0xbcb642a3	-0.022248572
54	0x3db6115f	0.08890032
55	0x3d838ee5	0.06423739
56	0xbe4b274d	-0.19839211
57	0x3de08629	0.10963089
58	0x3c649b32	0.013953017
59	0x3ddc14d2	0.10746159
60	0x3dd39164	0.103304654
61	0xbe1a0ef2	-0.15044764
62	0xbd8c7819	-0.06858844
63	0xbd9455fb	-0.07242962
64	0xbc5d74a3	-0.013516578
65	0x3a0d4758	0.0005389354
66	0x3c0adda8	0.0084756985
67	0xbd271c2f	-0.040798362
68	0xbe4c82c7	-0.19971763
69	0x3e18a76b	0.14907615
70	0x3e0a88bf	0.13528727
71	0x3dccecc1	0.10006095
72	0xbe0223fd	-0.12709041
73	0x3dca0c5b	0.09865638
74	0xbe481f29	-0.19543137
75	0xbda237fc	-0.079208344
76	0xbcc5bb15	-0.02413706
77	0x3d7e2824	0.06205
78	0x3d3ca65f	0.0460571
79	0x3c9b99af	0.01899418
80	0xbd215568	-0.03938809
81	0x3e2791e5	0.16364248
82	0xbe15ca63	-0.14627986
83	0xbd8d08c7	-0.0688644
84	0xbe244586	-0.16042146
85	0x3d1393f9	0.03602979
86	0xbe5f216d	-0.21790095
87	0x3e228491	0.15870883
88	0xbcb71c92	-0.02235249
89	0x3dae805f	0.085205786
90	0x3c87d8ef	0.016582934
91	0x3d78bbc6	0.06072595
92	0x3d1f3096	0.038864695
93	0x3c42c049	0.011886665
94	0x3e1e13bc	0.15437216
95	0x3d4f6ffc	0.050643906
96	0x3d99c657	0.075085334
97	0x3d7f2de8	0.06229964
98	0x3d93fc0e	0.0722581
99	0x3d037d67	0.032102015
100	0xbe44973d	-0.19198318
101	0xbe30dc62	-0.1727157
102	0x3dbe8ee3	0.09304597
103	0x3ca59be7	0.020215942
104	0x3e1e6730	0.1546905
105	0x3e7502f5	0.2392691
106	0x3e00c6d9	0.12575854
107	0xbc3ba5f9	-0.011453145
108	0xbd7b478d	-0.061347533
109	0xbe15660f	-0.14589714
110	0xbdbae1b2	-0.09125079
111	0xbe814187	-0.25245306
112	0x3c0990b5	0.008396317
113	0x3d520541	0.05127454
114	0xbe413c10	-0.18870568
115	0xbda80c79	-0.08205504
116	0x3ccd16b8	0.025035247
117	0x3cfd6337	0.030931098
118	0x3de68930	0.11256635
119	0x3dbb76bb	0.091535054
120	0x3dd9227c	0.106022805
121	0xbe24b6b9	-0.16085328
122	0x3de6df1f	0.11273026
123	0x3e3ce09b	0.18445055
124	0xbcbef41b	-0.023309758
125	0x3d4184a7	0.047245648
126	0x3c9ca35f	0.01912087
127	0xbe054187	-0.13013278
128	0x3cecd6f3	0.02891109
129	0xbdf8af7b	-0.12142845
130	0xbd0d58fe	-0.034508698
131	0x3bbcc63c	0.005760936
132	0xbda2cd5c	-0.079493254
133	0x3de3af5d	0.11117432
134	0x3e493be5	0.19651754
135	0xbe11b565	-0.14229353
136	0x3d344715	0.0440131
137	0xbdf1f60f	-0.1181451
138	0xbe3099f9	-0.17246236
139	0xbe51ebcb	-0.20500104
140	0x3e3f11d1	0.1865914
141	0xbdbac8b8	-0.09120315
142	0xbe87f329	-0.26552704
143	0x3e20fd55	0.15721639
144	0x3cb25fbc	0.021774165
145	0xbd4facdd	-0.050701965
146	0xbe2e9b79	-0.17051496
147	0x3e7c0387	0.2461072
148	0xbd11c66c	-0.03558962
149	0xbe456d94	-0.19280082
150	0xbd63129e	-0.055437677
151	0xbd0ddb7f	-0.034633156
152	0x3d2ab6d9	0.041678283
153	0xbe5df3dd	-0.21675058
154	0xbe0840e0	-0.13305998
155	0x3dc4a37d	0.096014954
156	0xbe4e5d79	-0.20152844
157	0x3aee9e16	0.0018205072
158	0xbd9160c0	-0.07098532
159	0x3dfd2d5e	0.12362169
160	0x3cd40a25	0.025883744
161	0x3e2d63e7	0.16932641
162	0x3db3e2c7	0.08783489
163	0x3ce50dc2	0.027960662
164	0xbe8d32a3	-0.27577695
165	0xbd8a4e50	-0.06753218
166	0x3e2ff0f6	0.17181763
167	0xbea6f30a	-0.326073
168	0xbe8a386f	-0.2699618
169	0xbde35acf	-0.11101305
170	0x3dbe4988	0.09291369
171	0xbe31b26a	-0.17353216
172	0xbd9d4d02	-0.07680704
173	0x3e037424	0.12837273
174	0xbdb32fee	-0.08749376
175	0xbbcaadad	-0.0061852545
176	0xbd1b3f09	-0.037901912
177	0xbe274d1d	-0.1633801
178	0x3d93dced	0.072198726
179	0xbc20f3cd	-0.009823752
180	0xbea5a6e3	-0.32353887
181	0xbe5ffd6c	-0.21874017
182	0xbc51f90b	-0.012815724
183	0xbce78942	-0.028263692
184	0x3d90408b	0.070435606
185	0xbe2862f2	-0.16443995
186	0x3dbd32c5	0.09238199
187	0x3d6c0467	0.057621386
188	0x3e42ff54	0.19042712
189	0xbe4fecf9	-0.20305242
190	0x3e026f27	0.12737714
191	0x3d96c119	0.07361049
192	0x3de97bb8	0.114005506
193	0xbd942a50	-0.07234633
194	0x3bc96f00	0.0061472654
195	0x3cf818d5	0.030285278
196	0xbd65079a	-0.055915453
197	0xbe59de15	-0.21276124
198	0xbdb2638f	-0.087103955
199	0x3c169121	0.009189875
200	0x3d32fe5a	0.0436996
201	0x3d3c586d	0.045982767
202	0x3d18a2ee	0.037264757
203	0xbe67372f	-0.22579645
204	0xbe362f11	-0.17791392
205	0x3e456ccc	0.19279784
206	0x3d62b150	0.05534488
207	0xbe13385c	-0.14376968
208	0x3d35fd2f	0.044430908
209	0x3df354eb	0.11881431
210	0x3c2f852f	0.010712906
211	0xbe2dd508	-0.16975796
212	0x3e1c00b8	0.15234649
213	0x3e06a5f4	0.13149244
214	0x3ca2a4bd	0.019853944
215	0xbe03cf64	-0.12872082
216	0xbdbf7939	-0.09349293
217	0x3d5fed33	0.05466957
218	0x3e02f051	0.12786986
219	0x3d5bcaaa	0.053660072
220	0xbe05311c	-0.13007015
221	0xbb883243	-0.0041563823
222	0x3d1bd8a6	0.03804841
223	0xbcd939f7	-0.026516898
224	0x3da93c84	0.082634956
225	0x3cf9f091	0.030510219
226	0xbe0b78ab	-0.1362025
227	0x3de2c4a8	0.110726655
228	0xbc0d0140	-0.008606255
229	0x3dcbe55a	0.09955855
230	0xbe96b03f	-0.2943134
231	0xbe45eedf	-0.19329403
232	0xbc063577	-0.008191458
233	0x3ad88e3a	0.0016521879
234	0xbbacfe06	-0.0052793054
235	0xbc8b89f0	-0.017033547
236	0x3c76be26	0.015059983
237	0x3d8d395a	0.068957046
238	0x3dfa3a8f	0.122182004
239	0x38647c7b	5.4475368e-05
240	0xbdb066f0	-0.08613384
241	0xbe66cc34	-0.22538835
242	0x3e6bd140	0.23029041
243	0x3d089f5b	0.0333551
244	0xbd9ac2f4	-0.075567156
245	0x3e04d04f	0.12970088
246	0x3c58d455	0.013234218
247	0x3c8a38d2	0.016872797
248	0x3d86dfea	0.06585677
249	0xbcce6150	-0.025192887
250	0x3daf8096	0.08569448
251	0x3e391542	0.18074515
252	0xbdc5c46f	-0.09656607
253	0x3d831538	0.064005315
254	0xbbeb241a	-0.0071759345
255	0xbe44e901	-0.19229509

bias f4 [10]
0	0xbdd37216	-0.103244945
1	0x3c8d1654	0.017222561
2	0xbcbc7c9f	-0.023008643
3	0x3d956681	0.07294942
4	0x3cabbc84	0.020963915
5	0x3d94bb1e	0.07262252
6	0xbd7e0586	-0.062016986
7	0x3b047004	0.0020208368
8	0xbd383d6c	-0.04498045
9	0x3d836c72	0.06417169
